Number of training dataset: 520
Number of validation dataset 3
Number of classes: 52
Model Initialized
----------------------------------------------------------------
        Layer (type)               Output Shape         Param #
================================================================
            Conv2d-1         [-1, 16, 397, 397]             272
       BatchNorm2d-2         [-1, 16, 397, 397]              32
              SiLU-3         [-1, 16, 397, 397]               0
         Dropout2d-4         [-1, 16, 397, 397]               0
         MaxPool2d-5           [-1, 16, 99, 99]               0
            Conv2d-6           [-1, 32, 96, 96]           8,224
       BatchNorm2d-7           [-1, 32, 96, 96]              64
              SiLU-8           [-1, 32, 96, 96]               0
         Dropout2d-9           [-1, 32, 96, 96]               0
        MaxPool2d-10           [-1, 32, 48, 48]               0
           Conv2d-11           [-1, 64, 46, 46]          18,496
      BatchNorm2d-12           [-1, 64, 46, 46]             128
             SiLU-13           [-1, 64, 46, 46]               0
        Dropout2d-14           [-1, 64, 46, 46]               0
        MaxPool2d-15           [-1, 64, 23, 23]               0
           Conv2d-16          [-1, 128, 22, 22]          32,896
      BatchNorm2d-17          [-1, 128, 22, 22]             256
             SiLU-18          [-1, 128, 22, 22]               0
        Dropout2d-19          [-1, 128, 22, 22]               0
        MaxPool2d-20          [-1, 128, 11, 11]               0
           Conv2d-21          [-1, 256, 10, 10]         131,328
      BatchNorm2d-22          [-1, 256, 10, 10]             512
             SiLU-23          [-1, 256, 10, 10]               0
        Dropout2d-24          [-1, 256, 10, 10]               0
        MaxPool2d-25            [-1, 256, 5, 5]               0
           Conv2d-26            [-1, 512, 4, 4]         524,800
      BatchNorm2d-27            [-1, 512, 4, 4]           1,024
             SiLU-28            [-1, 512, 4, 4]               0
        Dropout2d-29            [-1, 512, 4, 4]               0
        MaxPool2d-30            [-1, 512, 2, 2]               0
           Linear-31                  [-1, 512]       1,049,088
      BatchNorm1d-32                  [-1, 512]           1,024
             SiLU-33                  [-1, 512]               0
           Linear-34                  [-1, 256]         131,328
      BatchNorm1d-35                  [-1, 256]             512
             SiLU-36                  [-1, 256]               0
           Linear-37                  [-1, 128]          32,896
      BatchNorm1d-38                  [-1, 128]             256
             SiLU-39                  [-1, 128]               0
           Linear-40                   [-1, 52]           6,708
================================================================
Total params: 1,939,844
Trainable params: 1,939,844
Non-trainable params: 0
----------------------------------------------------------------
Input size (MB): 0.61
Forward/backward pass size (MB): 95.23
Params size (MB): 7.40
Estimated Total Size (MB): 103.24
----------------------------------------------------------------
None
Epoch: 0
…
