Number of training dataset: 520
Number of validation dataset 3
Number of classes: 52
Model Initialized
----------------------------------------------------------------
        Layer (type)               Output Shape         Param #
================================================================
            Conv2d-1         [-1, 16, 395, 395]             592
       BatchNorm2d-2         [-1, 16, 395, 395]              32
              SiLU-3         [-1, 16, 395, 395]               0
         Dropout2d-4         [-1, 16, 395, 395]               0
         MaxPool2d-5         [-1, 16, 131, 131]               0
            Conv2d-6         [-1, 32, 128, 128]           8,224
       BatchNorm2d-7         [-1, 32, 128, 128]              64
              SiLU-8         [-1, 32, 128, 128]               0
         Dropout2d-9         [-1, 32, 128, 128]               0
        MaxPool2d-10           [-1, 32, 64, 64]               0
           Conv2d-11           [-1, 64, 62, 62]          18,496
      BatchNorm2d-12           [-1, 64, 62, 62]             128
             SiLU-13           [-1, 64, 62, 62]               0
        Dropout2d-14           [-1, 64, 62, 62]               0
        MaxPool2d-15           [-1, 64, 31, 31]               0
           Conv2d-16          [-1, 128, 30, 30]          32,896
      BatchNorm2d-17          [-1, 128, 30, 30]             256
             SiLU-18          [-1, 128, 30, 30]               0
        Dropout2d-19          [-1, 128, 30, 30]               0
        MaxPool2d-20          [-1, 128, 15, 15]               0
           Conv2d-21          [-1, 256, 14, 14]         131,328
      BatchNorm2d-22          [-1, 256, 14, 14]             512
             SiLU-23          [-1, 256, 14, 14]               0
        Dropout2d-24          [-1, 256, 14, 14]               0
        MaxPool2d-25            [-1, 256, 7, 7]               0
           Conv2d-26            [-1, 256, 6, 6]         262,400
      BatchNorm2d-27            [-1, 256, 6, 6]             512
             SiLU-28            [-1, 256, 6, 6]               0
        Dropout2d-29            [-1, 256, 6, 6]               0
        MaxPool2d-30            [-1, 256, 3, 3]               0
           Linear-31                 [-1, 1024]       2,360,320
      BatchNorm1d-32                 [-1, 1024]           2,048
             SiLU-33                 [-1, 1024]               0
           Linear-34                  [-1, 512]         524,800
      BatchNorm1d-35                  [-1, 512]           1,024
             SiLU-36                  [-1, 512]               0
           Linear-37                  [-1, 256]         131,328
      BatchNorm1d-38                  [-1, 256]             512
             SiLU-39                  [-1, 256]               0
           Linear-40                  [-1, 128]          32,896
      BatchNorm1d-41                  [-1, 128]             256
             SiLU-42                  [-1, 128]               0
           Linear-43                   [-1, 52]           6,708
================================================================
Total params: 3,515,332
Trainable params: 3,515,332
Non-trainable params: 0
----------------------------------------------------------------
Input size (MB): 0.61
Forward/backward pass size (MB): 108.96
Params size (MB): 13.41
Estimated Total Size (MB): 122.98
----------------------------------------------------------------
None
Epoch: 0
…
