Number of training dataset: 520
Number of validation dataset 3
Number of classes: 52
Model Initialized
----------------------------------------------------------------
        Layer (type)               Output Shape         Param #
================================================================
            Conv2d-1         [-1, 16, 198, 198]             592
       BatchNorm2d-2         [-1, 16, 198, 198]              32
              SiLU-3         [-1, 16, 198, 198]               0
         Dropout2d-4         [-1, 16, 198, 198]               0
         MaxPool2d-5           [-1, 16, 66, 66]               0
            Conv2d-6           [-1, 32, 63, 63]           8,224
       BatchNorm2d-7           [-1, 32, 63, 63]              64
              SiLU-8           [-1, 32, 63, 63]               0
         Dropout2d-9           [-1, 32, 63, 63]               0
        MaxPool2d-10           [-1, 32, 31, 31]               0
           Conv2d-11           [-1, 64, 29, 29]          18,496
      BatchNorm2d-12           [-1, 64, 29, 29]             128
             SiLU-13           [-1, 64, 29, 29]               0
        Dropout2d-14           [-1, 64, 29, 29]               0
        MaxPool2d-15           [-1, 64, 14, 14]               0
           Conv2d-16          [-1, 128, 13, 13]          32,896
      BatchNorm2d-17          [-1, 128, 13, 13]             256
             SiLU-18          [-1, 128, 13, 13]               0
        Dropout2d-19          [-1, 128, 13, 13]               0
        MaxPool2d-20            [-1, 128, 6, 6]               0
           Conv2d-21            [-1, 256, 5, 5]         131,328
      BatchNorm2d-22            [-1, 256, 5, 5]             512
             SiLU-23            [-1, 256, 5, 5]               0
        Dropout2d-24            [-1, 256, 5, 5]               0
           Conv2d-25            [-1, 512, 4, 4]         524,800
      BatchNorm2d-26            [-1, 512, 4, 4]           1,024
             SiLU-27            [-1, 512, 4, 4]               0
           Linear-28                  [-1, 512]       4,194,816
      BatchNorm1d-29                  [-1, 512]           1,024
             SiLU-30                  [-1, 512]               0
           Linear-31                  [-1, 256]         131,328
      BatchNorm1d-32                  [-1, 256]             512
             SiLU-33                  [-1, 256]               0
           Linear-34                  [-1, 128]          32,896
      BatchNorm1d-35                  [-1, 128]             256
             SiLU-36                  [-1, 128]               0
           Linear-37                   [-1, 52]           6,708
================================================================
Total params: 5,085,892
Trainable params: 5,085,892
Non-trainable params: 0
----------------------------------------------------------------
Input size (MB): 0.61
Forward/backward pass size (MB): 26.62
Params size (MB): 19.40
Estimated Total Size (MB): 46.63
----------------------------------------------------------------
None
Epoch: 0
…
